model1.pt (torch, 659183 bytes, 10 tensors)

weight f4 [10, 1, 2, 2]
000000 0a 34 fa be b7 de e9 3e db 9f 9a bf 33 0e 11 bf
       -0.48867828 0.4567773 -1.2080034 -0.5666229
000010 ed 0d f3 3f 07 6d 1a 40 a3 50 6a bf 09 19 0f bf
       1.8988625 2.4129045 -0.9152929 -0.55897576
000020 68 e9 fc 3d 1d ee 5d 40 39 45 4b c0 4a e6 77 3d
       0.12349206 3.4676583 -3.1761 0.060522355
000030 ea 00 e1 3f 6a 93 9a 3f 43 54 9d bf 82 ea 3c c0
       1.7578404 1.2076237 -1.229134 -2.9518132
000040 73 6e c0 3f 30 d3 c0 3f 74 a1 c3 bf 87 c1 fc bf
       1.5033706 1.5064449 -1.5283647 -1.974656
000050 7e 18 3a be 0e b3 d2 3e 28 2d 1c 3f a5 73 f0 3e
       -0.18173406 0.41152233 0.610064 0.4696323
000060 75 a0 7f bf 0a f4 c4 3f 5e b7 8a bf c6 cb c3 3f
       -0.99854213 1.5386975 -1.0837209 1.5296562
000070 2b da 95 bf 92 91 d1 3b 57 4d 87 bf 4f ac f4 3e
       -1.1707205 0.006395527 -1.0570477 0.4778771
000080 6c 4f 66 bf 1e a7 bd 3f a9 f3 51 be 77 f5 c7 bd
       -0.8996494 1.4816625 -0.20503105 -0.097636156
000090 19 1c 2a c0 98 f7 cc be 58 a8 22 3e e2 5c 63 40
       -2.657965 -0.4003265 0.1588453 3.552544

bias f4 [10]
000000 61 38 94 3e 33 8b d8 be 01 e1 7c bd 01 9d 50 3e
       0.28949264 -0.422937 -0.061738018 0.20372392
000010 32 d2 c5 3d e4 9a 4e be d9 3b 1e be cb b6 88 3e
       0.09659232 -0.20176274 -0.15452518 0.2670196
000020 69 0c 16 bd 39 af e5 bd
       -0.03663293 -0.11215062

weight f4 [128, 10, 2, 2]
000000 92 3a 40 bd 74 54 20 3e 49 99 36 be 90 c9 a0 bd
       -0.046930857 0.15657216 -0.17831911 -0.07850945
000010 e1 9a 10 be 43 67 23 be bb 33 c2 3d 21 23 13 bd
       -0.14121582 -0.1595736 0.09482523 -0.035922173
000020 51 78 5d bc 70 27 c5 bd 95 aa 4b bc 85 72 2c bb
       -0.013517455 -0.09626663 -0.012430807 -0.0026313376
000030 8c b7 13 3e f1 71 ab 3d 52 92 a0 bd ea f1 81 bd
       0.14425486 0.08371342 -0.078404084 -0.063449696
000040 55 3f 8e 3d 84 70 58 bd 67 a9 52 3e ca 46 af bc
       0.069456734 -0.05284168 0.20572434 -0.02139606
000050 45 f4 90 bd d0 f8 46 be bd 85 97 bd ba 4d d0 bd
       -0.07077841 -0.19430852 -0.073985554 -0.10171075
000060 d7 97 6d be 1d db 3f be d2 9f 5a be 3b a2 87 3b
       -0.23202454 -0.18735929 -0.21350029 0.0041392124
000070 6a 38 0b 3e e3 65 2f 3e b9 7a 4c be 87 e7 f5 bd
       0.13595739 0.1712871 -0.1996869 -0.12007051
000080 c4 79 10 be 7e ef b1 bc 92 04 c6 bd 89 10 e4 3d
       -0.1410895 -0.021720644 -0.096688405 0.11135966
000090 23 94 89 be 00 51 a9 3d ec 5d 34 bd a8 61 80 bd
       -0.26870832 0.08267403 -0.044034883 -0.062686265
0000a0 10 a8 b5 3e f7 e5 d0 3e 68 a0 f3 bd 5c fe 3d bd
       0.35479784 0.4080045 -0.118958294 -0.046385154
0000b0 aa 35 9c be e4 de c2 bd 98 45 d3 3e 8e b2 c1 3e
       -0.30509692 -0.09515169 0.41264033 0.3783154
0000c0 87 fc 9b 3c 20 8a e4 3e 4d 7a 92 3e d6 c6 4d 3e
       0.019041313 0.4463663 0.28608933 0.20095381
0000d0 85 35 57 3e 83 4b 6f 3e d7 d6 5f 3d 1f 60 6a 3d
       0.2101651 0.23368649 0.054648247 0.057220574
0000e0 d2 bd a9 3d 0b 58 b5 3d 42 79 ab 3d 82 17 93 bc
       0.082881585 0.088546835 0.083727375 -0.017955545
0000f0 82 b5 5b be af 72 91 bb 75 4d a1 3d 7f ba c0 bc
       -0.21455958 -0.00443872 0.07876102 -0.023526428
000100 92 dc 37 3e 8a fd aa 3c 10 70 5f 3e 20 53 7f 3e
       0.17955235 0.02087285 0.21820092 0.24934053
000110 2d 6a b7 3e 00 a1 2c 3e b5 f8 ec bd 59 a4 07 be
       0.35823193 0.16858292 -0.115708746 -0.13246287
000120 29 4f 36 3e d3 a4 46 3e 9c 2f a7 3c 54 ee 78 3d
       0.17803635 0.19398813 0.020408444 0.060774162
000130 88 c0 c4 bc ce 30 cf 3d 6f 36 39 3c a9 a3 ad bd
       -0.024017587 0.10116731 0.011304482 -0.08478481
000140 b2 5e 2b be 96 8e b6 be cf 2f 0a 3e 23 2c 90 3e
       -0.16735342 -0.3565566 0.134948 0.28158674
000150 20 9e 86 3e 87 48 c8 3d bd 77 83 bd af 12 e3 be
       0.26292515 0.097794585 -0.06419323 -0.44350192
000160 a7 f1 5c be b0 ef 9d be 7d 7e 5c be bf bf 4b be
       -0.21576558 -0.3084693 -0.21532626 -0.19897364
000170 19 b0 35 bd d0 ce a9 be 2c 54 70 3e eb d5 8a 3c
       -0.044357393 -0.33165598 0.23469609 0.016947707
000180 32 3c 82 bd c0 30 65 be 04 2a cb 3d f8 cd 33 3d
       -0.063591376 -0.22381878 0.09920123 0.0438976
000190 67 e2 ea bd 5f d8 da 3d e8 be fc bd 9b d0 7f be
       -0.11468964 0.10685801 -0.123411 -0.2498192
0001a0 c2 b0 fc 3c e9 2f 7d 3d 74 27 07 be f2 5c 8e bd
       0.030846003 0.06181327 -0.13198644 -0.06951322
0001b0 1b 99 7c bd c7 0c b7 be 23 c9 37 3e e7 91 fa 3d
       -0.06166945 -0.35751936 0.17947821 0.1223486
0001c0 a0 90 44 be 18 b0 15 3d f9 06 ae 3c 3f 45 ec bc
       -0.19195795 0.03654489 0.02124356 -0.028841613
0001d0 01 73 65 be c8 e3 31 bd 6e a2 94 bc bb 1a 1e 3e
       -0.22407152 -0.04343012 -0.018143859 0.15439884
0001e0 ea 31 68 3d 05 df 9c 3d 7a 04 72 be 34 18 54 be
       0.056688227 0.07659725 -0.2363452 -0.20712358
0001f0 db f1 30 3d 67 60 55 bd eb 3b 69 bd 47 a5 d2 bd
       0.0431994 -0.05209389 -0.056941908 -0.102854304
000200 a7 c3 d3 bd 8e af 2d be 7f 5c 01 be 15 32 de 3b
       -0.10340052 -0.169615 -0.1263294 0.0067808726
000210 23 32 8f 3d d2 8d 53 3e 6c 4f d2 3d ac ae eb 3d
       0.06991985 0.20659569 0.10269055 0.115079254
000220 ed 09 eb 3d e3 38 56 3c db 49 f1 bd 37 3f ba 3d
       0.114765026 0.013075086 -0.11781665 0.090940885
000230 96 58 36 bd 8e f1 cd bd 67 4d 03 3e 5f 9c 4a 3c
       -0.044518076 -0.100558385 0.12822495 0.012366383
000240 18 da cd bd 05 15 04 be 54 f2 6a 3c 9f 55 89 be
       -0.10051364 -0.12898643 0.014340002 -0.26823136
000250 72 3d 6d ba cf ca 4f be 52 d6 1b be 47 4a db bc
       -0.00090499886 -0.20292209 -0.15218475 -0.026768817
000260 49 1a da 3a c9 48 92 bc cd 05 01 be 90 2f 8e bd
       0.0016639914 -0.017856972 -0.12599869 -0.069426656
000270 94 63 82 be 57 77 48 be 57 f4 b4 3d 60 ab 90 be
       -0.25466597 -0.19576775 0.088356666 -0.2825575
000280 1a 9a 19 3d e6 d5 98 3d c1 04 44 bd 5f e0 59 3d
       0.03750048 0.07462673 -0.047856096 0.053192493
000290 54 cd 96 be b9 2f 23 3e 37 ff 6e bd 8c 83 6c 3c
       -0.29453528 0.15936173 -0.05834886 0.01443566
0002a0 fb df 09 3e ec 8e a5 bd f9 05 a5 bd 20 2a 0a bc
       0.13464348 -0.08083901 -0.0805778 -0.008432895
0002b0 83 68 b6 3c 75 05 37 3e 70 8e 0e 3e 40 f5 2e 3e
       0.022266632 0.17873175 0.13921523 0.17085743
0002c0 83 5d 6c 3d 4c df 5a bd 59 32 18 be e5 e5 da 3d
       0.057706367 -0.05343561 -0.14862956 0.1068838
0002d0 24 f9 2c bd 2e 84 5e 3b 30 9d 0d 3e 13 2f 9f bd
       -0.042229787 0.0033953297 0.13829494 -0.077726506
0002e0 cd 21 3e bd d5 80 0b be d4 b1 c6 bd 58 1b a1 3d
       -0.046418954 -0.13623364 -0.09701887 0.078665435
0002f0 4a de da 3d 11 e8 44 be eb ee 1d be ea f6 f7 3d
       0.106869295 -0.19229151 -0.15423171 0.12107642
000300 10 c8 97 3c 03 f1 0b 3c ec 3a eb 3c 7b de 04 be
       0.018528014 0.008541348 0.02871462 -0.12975495
000310 84 f7 0f 3e 00 78 32 be 15 27 5e be c7 0d b3 be
       0.14059263 -0.17428589 -0.21694596 -0.3497145
000320 08 ab 5f bd a5 55 aa 3d d6 98 5a 3d f9 8f a0 3d
       -0.054606467 0.08317117 0.053368412 0.078399606
000330 56 25 4d bd 79 43 f5 3c a1 34 46 3d aa 39 ee bd
       -0.050084434 0.0299394 0.048390035 -0.11632092
000340 ec fa 4a be dc 9e 3b 3e c9 e8 7f bd ff 8a aa bd
       -0.19822282 0.18322319 -0.06247786 -0.08327293
000350 de d4 07 3e e8 76 34 3d a7 57 07 3e 3d f0 1c 3e
       0.13264796 0.04405871 0.1321703 0.15326019
000360 24 62 52 3e 93 1e c8 3d 65 3f 2d 3e 40 79 2a 3e
       0.2054525 0.097714566 0.16918714 0.16647816
000370 c8 19 5a be c4 06 ae 3d 09 6e 06 3e 76 97 fc bd
       -0.21298897 0.08497384 0.13127913 -0.123335764
000380 51 13 96 3d 02 ac 95 3d 50 88 0a 3e 55 99 9a 3b
       0.07327903 0.073081985 0.13528562 0.0047179856
000390 4d f5 43 bd db de 0a be cf 7e 0a be f3 ae 23 3c
       -0.04784136 -0.13561575 -0.13524936 0.009990442
0003a0 ec 1d 2d be 1e 72 9b bb 9c 4e 2f bd e0 fc 15 be
       -0.16905946 -0.0047438284 -0.042799577 -0.14647245
0003b0 63 1a 91 be 4f a5 fc 3d db 35 83 bc 99 1d 86 be
       -0.28340444 0.123362176 -0.016016891 -0.26194456
0003c0 3b 46 b5 bd e5 58 d0 3d c7 7a 5e be 65 5d 01 be
       -0.08851286 0.10173205 -0.21726523 -0.12633283
0003d0 5b f1 c7 bd 1f ed 21 3e 94 42 1c bc 47 aa 1d bd
       -0.09762832 0.15813111 -0.009537358 -0.038492467
0003e0 07 1b c2 3d 2b 91 f2 37 56 34 9c bd b6 1a 06 bd
       0.09477811 2.8916247e-05 -0.0762717 -0.032740317
0003f0 05 c7 44 3d a1 7b e2 3d 52 e5 8d be bc e9 0f be
       0.048041362 0.110587366 -0.2771402 -0.14054006

bias f4 [128]
000000 e7 43 41 bc eb ad 0d bd 40 c3 1e 3d dd 4c 22 3d
       -0.011795974 -0.03458969 0.038760424 0.039624084
000010 f0 21 39 bb 67 cb fb ba 68 16 be 3c e2 c5 a1 bd
       -0.0028248988 -0.0019210399 0.023204044 -0.07899071
000020 d8 04 c5 3b fe 82 3a 3d 72 c3 84 bc 0a 60 b6 bd
       0.0060125403 0.04553508 -0.016206477 -0.08905037
000030 34 41 ae bd d3 60 90 bd e7 c4 d7 bb 51 56 6b bd
       -0.0850853 -0.07049718 -0.006584752 -0.057455365
000040 ba 47 37 3d c9 7a 51 3d 22 54 a3 bc 05 1e 8f 3d
       0.04474614 0.051142488 -0.019937579 0.06988148
000050 49 87 11 bb a2 b9 cf 3c ba 69 49 bd d7 b4 82 3c
       -0.002220588 0.025357071 -0.049173094 0.015955372
000060 0f 67 00 3e db b9 a1 bb 69 0b f3 bd 90 dd 83 bc
       0.12539314 -0.004935486 -0.11867411 -0.01609686
000070 d0 6c 3e bd 60 e5 8d bd 23 90 94 bc 24 b8 c8 bc
       -0.04649049 -0.069285154 -0.018135136 -0.024501868
000080 53 28 7e 3d ce 5d 0e 3e cf 9a 39 3c 78 8c 35 bc
       0.062050175 0.13902971 0.011328413 -0.011080854
000090 ea 16 ca 3c c2 9c 99 bd 22 33 62 3c 15 67 f6 3d
       0.02466913 -0.07500602 0.013806136 0.1203138
0000a0 9e 50 d8 bc f4 4d 7c 3c 95 90 67 3d c1 1a ba 3d
       -0.026405629 0.015399445 0.05653437 0.09087134
0000b0 b0 a2 b7 3d 1d f0 db 3b 63 ce d2 bc e5 bd fb bc
       0.08966577 0.0067119733 -0.025733178 -0.030730197
0000c0 02 ee 1c 3c b3 26 6d 3c 0b b3 f1 bd d4 d5 d0 3c
       0.00957823 0.014474559 -0.11801728 0.025492586
0000d0 58 ca 99 bd 65 89 4b bb ff 9a 8f bd cb e6 d5 bc
       -0.07509297 -0.0031057235 -0.07011985 -0.026111027
0000e0 91 7e fb 3d a2 8b 35 bd b6 65 1f 3e 1a 47 97 3c
       0.1228 -0.044322617 0.15566143 0.018466521
0000f0 a2 61 8c bc fc 22 8c 3d 55 18 7c bb 81 1c 96 bd
       -0.017136399 0.0684261 -0.0038466651 -0.073296554
000100 9b b2 1b 3d 64 9a a6 bd c9 c2 a6 3c 2d ac ef bc
       0.03801213 -0.081349164 0.020356553 -0.029256904
000110 1f b2 94 bc 6d 06 52 bd 84 d6 82 bd 2c 6a 5d 3c
       -0.018151341 -0.05127566 -0.06388572 0.013514083
000120 01 2c 78 bd d1 c8 31 3c df 4b 18 be ec 6b cf bc
       -0.06058884 0.010851101 -0.14872693 -0.025320016
000130 25 5b ba 3a 08 0c 2f 3d c1 18 09 bd 7b 80 00 bc
       0.0014217837 0.042736083 -0.033470873 -0.007843132
000140 27 22 22 3d 8b 67 10 bd 47 ef 18 bd dd 00 22 bd
       0.03958335 -0.035254996 -0.037337568 -0.039551605
000150 5b 17 72 3d 27 a5 33 3d 03 76 83 bd 37 4d f0 3d
       0.059104305 0.043858673 -0.06418993 0.117334776
000160 c7 54 8c bc 4c 54 d6 3c 86 33 85 bd 31 3f 33 bd
       -0.017130269 0.026163243 -0.06503968 -0.043761436
000170 2c b2 ae bd c6 75 b6 3b 5f 1b 02 be c0 cf 93 bd
       -0.08530077 0.005568239 -0.12705754 -0.072173595
000180 4a 87 b2 bd 7c 32 25 3c 2c c3 1b bd ae 34 bc 3c
       -0.087172106 0.010082837 -0.038027927 0.022974338
000190 a9 3d 02 3d e9 55 0e bd e9 9b aa 3c 07 22 ad 3c
       0.031797085 -0.0347499 0.020826297 0.02113439
0001a0 2e 07 bd bd 35 af 93 3d ec 46 9f bd 52 22 47 bd
       -0.09229885 0.072111525 -0.07777199 -0.048616715
0001b0 fe bd 26 bc 52 ba df 3d 19 6a 93 3b ae 00 81 3c
       -0.010177134 0.1092421 0.004498732 0.015747394
0001c0 e6 99 37 bd fa a0 2a 3d 87 1a e2 bc 61 e5 80 3d
       -0.044824503 0.041657425 -0.02760054 0.062937506
0001d0 f0 2d 91 bd 7b 2a 73 3d bc 86 55 bc 4f 4c d5 3c
       -0.0708884 0.059366684 -0.013032611 0.026037363
0001e0 58 a7 10 bd a9 67 53 bd 42 d8 cc bd c3 57 6f 3d
       -0.03531584 -0.05161253 -0.100021854 0.058433305
0001f0 3a 29 ef bc 9e 36 61 bc 10 13 29 3d b3 88 28 3d
       -0.029194463 -0.013745932 0.041277945 0.04114599

weight f4 [256, 128, 2, 2]
000000 17 37 ac bd ba 72 94 bb a2 1c 88 3d 70 75 b3 bc
       -0.08408945 -0.004530278 0.06646086 -0.021906585
000010 37 b6 cc bd c1 e0 b2 bd aa d1 7e 3d fb ce ff 3d
       -0.09995692 -0.08734275 0.06221167 0.1249065
000020 54 36 d4 3b 8b 8a 04 3d c1 67 12 bd 07 d7 68 bd
       0.006476203 0.032358687 -0.03574348 -0.05684569
000030 51 16 ed 3c fe ae 31 bd 0f 7f 38 bd 67 0a 6e bc
       0.028941305 -0.043379776 -0.045043048 -0.014528847
000040 8a 78 07 bc db f0 de bc 66 8a 5d 3d 91 ec e2 3c
       -0.008268485 -0.027214458 0.054087065 0.027700694
000050 72 48 19 bd 04 ca fd bc d2 77 c4 3c 6e d3 bd 3c
       -0.037422605 -0.030980118 0.023982916 0.023172107
000060 c2 ca 88 3d 7f fd 3b bc 80 a3 5a bd da 8b 48 3c
       0.06679298 -0.011474012 -0.053378582 0.012240374
000070 32 aa f0 bc 54 52 1d 3c 86 d7 a6 3c 63 5e ae 3c
       -0.02937803 0.009602148 0.020366441 0.021285241
000080 19 63 c8 bd 4c cf 83 3d 55 25 28 bd 83 31 82 bd
       -0.097845264 0.06436023 -0.041051228 -0.063571
000090 65 92 32 3c f2 de ff bc 19 f3 97 bc 6b 65 90 3c
       0.010899161 -0.031234238 -0.018548535 0.017626485
0000a0 82 0e 99 3d 13 6d 7b bd a5 b4 4c 3d d5 1c 4d 3d
       0.0747347 -0.06138332 0.049976964 0.050076324
0000b0 84 1e 81 bc 63 5a ff 3c 5a 5a 01 bd b5 40 e2 3c
       -0.015761621 0.03117103 -0.031580307 0.027618745
0000c0 1d a9 ea bc 3f be 2c bd 95 bd 74 3b 25 a9 67 3c
       -0.028645093 -0.04217362 0.0037344445 0.014139448
0000d0 d6 87 21 3d 7a 8b fd bc b7 02 22 3c 5b 4b 85 bd
       0.039436184 -0.030950297 0.009888343 -0.065085135
0000e0 fb 7b 0d 3d 18 f1 12 3d 49 bc a7 3b 10 0b 74 3c
       0.034542065 0.035874456 0.005118881 0.014895216
0000f0 d7 c7 b1 3c 48 14 14 bd 41 2d 37 3b 96 53 cf 3d
       0.021701736 -0.036152154 0.0027950557 0.101233646
000100 24 b8 2e bd ee 4d 21 3d 0d 95 00 bb 47 ec bf 3c
       -0.04265608 0.03938096 -0.0019620091 0.023428096
000110 af 2f a3 bc 9e ea 36 3d 90 16 85 3d 1e 32 39 bc
       -0.019920198 0.044657342 0.06498444 -0.011303453
000120 8c b1 6e 3c fc 1a ce bb 01 5f 60 bc 42 b6 9b bb
       0.014568698 -0.006289838 -0.013694526 -0.0047519514
000130 08 a5 18 bd 61 de 80 bb d1 b9 83 3d 0e 4c 95 bd
       -0.03726676 -0.0039327596 0.06431926 -0.07289897
000140 f1 e5 7f 3c 83 2e 2d 3d 7a fe 65 bd ae 7e aa bb
       0.015618787 0.042280685 -0.05615089 -0.0052030897
000150 0b d4 ce bc d8 1f 6c 3c c4 3f ac 3b 8a 3d b7 3c
       -0.025247594 0.014411889 0.005256625 0.022368211
000160 6f 2f 58 bd a6 b2 01 bd 0f 6a 36 3d 3e 7a 9d 3d
       -0.05277961 -0.031664513 0.04453474 0.076893315
000170 5e 38 75 3c 8f aa 22 bb 87 1f 35 bd fb 96 eb bc
       0.014967052 -0.00248209 -0.04421952 -0.028758517
000180 2a be 14 3e d5 f4 ae bc 4c 20 c1 bd 00 71 cb bd
       0.14525667 -0.02135698 -0.09429988 -0.099336624
000190 e9 ba 89 3d c7 5f ed 3c 5e 69 94 bc b2 35 36 bc
       0.067251034 0.028976334 -0.01811665 -0.0111212
0001a0 8d 99 0a bd f1 f1 86 bd c3 53 d6 ba 5d 9a fa 3d
       -0.033837844 -0.065891154 -0.0016351867 0.12236474
0001b0 eb 90 89 bd 7c cc 59 bd 3e 16 08 bc d9 b7 74 3b
       -0.06717094 -0.053173527 -0.008306084 0.0037341027
0001c0 c0 eb cb 3c e2 0d 1f 3d cf d7 05 bd 0d 3c 5e 3b
       0.024892688 0.0388316 -0.032676514 0.0033910305
0001d0 c5 fa 6e bd fc aa 95 bc a5 25 d0 bb 5e b2 8b 3d
       -0.05834462 -0.018270008 -0.006352144 0.0682113
0001e0 2f 12 b3 ba 3f 99 30 3c 03 37 a2 bc 51 ef ff 3c
       -0.0013662035 0.010778724 -0.019801622 0.031242045
0001f0 0d dd af bc 20 c3 db 3c 10 b6 47 3d de ff b1 bb
       -0.02146771 0.026826441 0.048757613 -0.005432113
000200 b5 1c 05 3c 7f b8 ab 3d 18 1d 22 3d 92 64 2c bd
       0.00812452 0.08384799 0.039578527 -0.0420881
000210 2c cb ac bc 77 9c 30 3d 15 75 3d bd c5 b0 dd bc
       -0.021092974 0.043117967 -0.046254236 -0.02706183
000220 1a cf f1 3a 65 78 8a bb 07 96 40 3d 7c 12 cc 3b
       0.0018448562 -0.004225778 0.047018077 0.0062277894
000230 5c 2d c8 3c 93 33 ba bd e4 bd 61 bc 69 c6 9c 3c
       0.024435692 -0.09091868 -0.013778184 0.019137578
000240 72 97 ea 3c 2d c5 c4 b7 55 cb 1b bd ec 37 1e 3c
       0.028636668 -2.3456838e-05 -0.03803571 0.0096568875
000250 e1 dd a3 3b 3f 52 87 bc e6 23 27 bd 30 5f 0a 3d
       0.0050008153 -0.01651871 -0.04080572 0.033782184
000260 3e bb 1b 3d d4 8f 00 bc b8 d4 2b bd 53 49 eb 3c
       0.038020365 -0.007846791 -0.04195091 0.028721487
000270 a5 a6 b3 bd 8f c8 6b 3c 97 82 a2 3c 5b de e7 bc
       -0.08772019 0.014391079 0.01983766 -0.02830427
000280 6e 3b 02 bd 55 1d f4 38 28 92 67 bd 93 f5 f6 3c
       -0.031794958 0.0001164029 -0.05653587 0.030146396
000290 7c db ed bb 00 c6 be 3d 85 d0 8d 3d 7e 4c ca bd
       -0.0072588306 0.09315109 0.069245376 -0.09877871
0002a0 a4 a2 97 bd 8b a8 48 3c 37 8a ce bc 2b de 80 bc
       -0.07404068 0.012247215 -0.02521239 -0.015730938
0002b0 43 be 44 bd c2 38 37 3d 00 26 a7 3a d0 71 23 bd
       -0.04803301 0.044731863 0.0012752414 -0.039903462
0002c0 af cc ad 3d e0 2a 68 3c 82 e9 5d 3d 46 6a a8 bc
       0.08486306 0.014170378 0.05417777 -0.020558488
0002d0 35 3b 1b bc ed d9 7d bd 0a 93 8a 3c 5e 2b 28 3d
       -0.009474565 -0.06197541 0.016915817 0.041056983
0002e0 1e 22 08 3d c9 d3 5e 3d 36 01 2a bd c8 34 d2 3b
       0.03323566 0.054401193 -0.04150506 0.0064149834
0002f0 7c 60 48 bd b3 35 e9 bc db b7 6e 3c 5a b6 52 3d
       -0.04892014 -0.028467989 0.014570202 0.051443435
000300 60 ea 8f 3b 28 a1 08 3d 4e 1a 60 bc c5 c1 8f bd
       0.0043919533 0.033356816 -0.0136781465 -0.070193805
000310 05 9d 08 bd f4 bc 95 bc b1 aa 38 ba 11 89 cf 3d
       -0.03335287 -0.018278576 -0.0007044478 0.10133565
000320 92 23 86 3d ce be 6c bd f0 02 9d bd da 80 58 bc
       0.06549753 -0.057799153 -0.07666576 -0.013214314
000330 0e 63 3e 3d fe 0f 11 bd 53 68 92 bd 86 f0 26 bc
       0.046481185 -0.035415642 -0.071488045 -0.010189181
000340 aa ed 2b bd e0 4f 05 bb 62 8d a3 bc 57 6d 55 bb
       -0.0419747 -0.0020341799 -0.019964878 -0.0032566392
000350 a8 52 d4 bc c2 30 60 ba 0d db 39 3d a3 c7 ac bd
       -0.02591832 -0.00085521874 0.04537492 -0.08436515
000360 93 3d 62 3d f3 ce 48 3d 44 b3 8b bc 4b a4 1c 3a
       0.055234503 0.049025487 -0.017053254 0.00059754093
000370 70 7f 2e bd 42 5a 93 3c e7 ef 85 3d 1b e1 a4 3d
       -0.042602003 0.017987374 0.06539898 0.08050748
000380 90 b7 54 bd b4 c3 00 3d 7c fd 08 bd 1c 46 9d bd
       -0.05193287 0.031436637 -0.033444867 -0.07679388
000390 86 e9 96 bc e6 9d 39 3d 02 83 ca 3b 4a e1 0c 3c
       -0.0184219 0.0453166 0.006180168 0.008598635
0003a0 04 c0 4b bd 93 ba 6d 3b 83 20 b1 3b 9a 13 35 bd
       -0.049743667 0.0036274537 0.005405487 -0.044208147
0003b0 e4 75 c4 3b 13 9a 51 3d 61 79 fe bb e6 da 19 3c
       0.005995499 0.051172327 -0.0077659343 0.009390568
0003c0 be ac ff 3a b8 c1 ed 3c 8f 42 be 3c 64 c7 64 3d
       0.0019506437 0.029023036 0.023225097 0.055854216
0003d0 9c 1b 79 3c 6e 67 84 3a 25 b8 bc b9 ba a0 cf 3c
       0.0152043365 0.0010101625 -0.00035995353 0.025345195
0003e0 81 a4 29 3c 10 63 3a bd a9 88 b6 b9 74 72 1a bd
       0.010354162 -0.04550463 -0.00034815565 -0.037706807
0003f0 6a 5d 0a bd ca 38 17 3d 04 aa ec 3c de 14 f9 bc
       -0.033780493 0.036919393 0.028889664 -0.030405458

bias f4 [256]
000000 bc 5b bf bc ac 5e e1 bd 3a a9 4e 3e 18 5f 4a bd
       -0.023359172 -0.11004385 0.20181742 -0.049407095
000010 30 69 46 be da d6 e7 3d f6 c6 3f 3e c4 ef 4f bb
       -0.19376063 0.113202766 0.18728241 -0.0031728605
000020 f8 d5 c4 3e 77 19 ce 3e 21 70 8a bd 5f 6d 56 bd
       0.38444495 0.40253803 -0.06759668 -0.0523504
000030 3a b7 34 3e fd 70 18 3e f3 79 d8 3d fc d6 50 bd
       0.1764802 0.14886852 0.10570135 -0.050986275
000040 b4 a7 a4 be 45 b9 b2 bd 1d c8 9b 3d 10 04 7e bd
       -0.32159197 -0.087267436 0.07606528 -0.062015593
000050 21 68 5a 3d 2a 56 a4 3d 5b b8 b9 be e4 c8 35 3e
       0.05332196 0.08024247 -0.36273465 0.17752415
000060 c8 6f be bc 09 96 03 be 38 0a be 3c 0c e6 1b 3e
       -0.02324666 -0.12850203 0.023198232 0.15224475
000070 7f 7f 1a 3e ff 30 13 3e 00 fa e0 3d 9e f3 1b 3e
       0.15087698 0.1437416 0.10985184 0.15229651
000080 8a 5c a2 3d 94 25 57 be 6f 1a 84 3e 56 2f 9c 3e
       0.07927807 -0.21010429 0.25801417 0.30504864
000090 1a f7 1d 3e 2a 3a c5 bd e1 01 44 be 4e 73 88 3e
       0.15426293 -0.096302345 -0.19141342 0.2665047
0000a0 c3 0f 31 3d 3b 36 f6 bc bf 19 ad bd d5 e9 6c bd
       0.043227922 -0.030055156 -0.08452176 -0.057840187
0000b0 35 4d c1 bd 72 40 93 bc ff e8 a4 3d d3 c1 e9 38
       -0.09438554 -0.017975066 0.08052253 0.00011146408
0000c0 61 bd 95 be 1d de f0 bc 62 87 a1 3e 27 c9 01 be
       -0.29246047 -0.029402787 0.315486 -0.1267439
0000d0 70 64 2a be bd b9 a6 be 38 f2 74 bd 22 11 35 3e
       -0.16639876 -0.32563582 -0.05980131 0.17682317
0000e0 94 62 fe 3d 16 f5 38 3e 9a 3c 98 bc 59 14 2c 3e
       0.12421146 0.18062243 -0.018583585 0.16804637
0000f0 d6 87 05 3e 5d 4c ab 3e 6d fe 25 3e 67 db eb be
       0.13040099 0.33456698 0.16210337 -0.46065828
000100 87 2a 87 3e a0 a9 23 3e 84 ae 16 3e bc 9f ac 3e
       0.26399633 0.15982676 0.1471501 0.33715618
000110 e7 c1 93 bd ac 4a 71 be 21 2c 12 be 50 f7 8d 3e
       -0.07214718 -0.23563641 -0.14274646 0.27727747
000120 31 5d b3 3d 93 b7 94 bd 30 45 e3 bd 56 2e 6a 3e
       0.08758009 -0.072615765 -0.11097181 0.22869238
000130 78 79 1c 3e fd 1f ee 3d 2f c5 b4 3c 52 5a 2b 3e
       0.15280712 0.11627195 0.02206668 0.16733673
000140 4a ff b4 3d d5 46 b4 bc a3 3d e5 bd 0a aa 6e 3e
       0.08837755 -0.022006432 -0.11193397 0.23307052
000150 e4 6a 2f bc 07 9e a1 3e 0d 6e 13 3e 8e a6 2c be
       -0.010706637 0.31565878 0.1439745 -0.1686041
000160 62 2c dd 3d ac bf a8 3e 63 33 d8 3c 1e 0c 8c 3e
       0.10799481 0.32958734 0.02639169 0.27352995
000170 71 25 85 be 8d 4a 03 3e 15 30 01 3f 53 5d 7c bd
       -0.26005128 0.12821408 0.5046399 -0.06161244
000180 ea de 0c 3e 45 ee 35 bd 98 04 a5 3d 67 5b df 3d
       0.1375691 -0.044416685 0.08057517 0.109061055
000190 e0 a6 1c 3d 30 28 41 3d b6 6b a1 3e e8 62 bc bc
       0.038245082 0.047157466 0.3152749 -0.02299638
0001a0 d2 e7 8d 3d de f2 75 3e ae 65 88 3e d2 45 6b 3e
       0.06928982 0.24018428 0.26640075 0.22975853
0001b0 2a cf 2e be 81 9b 0f 3e 3d 32 11 3b ee 93 97 bd
       -0.17071214 0.14024164 0.0022155188 -0.07401262
0001c0 ab c4 4f be 7a 40 69 be 77 c5 08 bd e4 41 cb bd
       -0.20289867 -0.22778502 -0.033391442 -0.09924677
0001d0 3d 17 8a 3d d4 b5 02 be 15 fc 93 3d 0e 7b fe 3e
       0.067427136 -0.12764674 0.07225815 0.49703258
0001e0 a2 9e 9f 3e f6 47 a6 bd fe 89 86 3e ae 58 37 be
       0.31175715 -0.08119194 0.26277155 -0.17904922
0001f0 10 ab 5b bd 31 b0 52 3e 43 9b 95 3d 53 ff 4d be
       -0.053629935 0.20575024 0.073050044 -0.2011693
000200 31 e1 8a 3e 8a 60 1e be 6d 6b 59 bd 0e 8c 96 bd
       0.27124932 -0.15466514 -0.053080965 -0.07350932
000210 96 1a 10 3e 11 2c 91 3d df bd fd bd ee 33 52 3c
       0.14072642 0.07088483 -0.12389731 0.012829764
000220 31 a8 cd 3d c1 72 a2 3c b7 48 87 3e 2c c0 04 bd
       0.100418456 0.01983011 0.26422665 -0.032409832
000230 28 3d f3 3e 8e da 72 be d4 0a f4 be 35 9d ac bd
       0.47507596 -0.23716184 -0.4766451 -0.08428422
000240 44 6c 47 be ab ce de bc b1 c5 ab 3d c3 32 82 bd
       -0.19474894 -0.027198156 0.08387316 -0.06357338
000250 4b 7d 1e bd d8 9f 9f bd a7 4d 29 be b8 fc ab 3e
       -0.038693707 -0.0779416 -0.16533528 0.33591247
000260 10 f8 17 be 5c eb 94 3e 26 0b 4b 3e 02 f1 58 bd
       -0.14840722 0.29085815 0.19828472 -0.052964218
000270 50 e0 50 3e 49 bb 26 3d 8a 6a 86 3e c9 da d1 be
       0.20398068 0.040705953 0.26253158 -0.40987232
000280 d4 7d bd bc 9b 96 26 3d a5 46 92 3d 37 2f cb bc
       -0.023131289 0.040670972 0.071423806 -0.024802787
000290 7e c4 0a 3e bd 4e c3 3e 97 63 c6 3d 01 34 cc bd
       0.13551518 0.3814601 0.09686964 -0.099708565
0002a0 e3 db 3f 3e 83 61 f3 3d d7 be 57 3e 25 39 b5 3d
       0.18736224 0.11883833 0.21068893 0.0884879
0002b0 4c 6c 70 3e 5c 43 df 3c d7 2b 7f 3e 3d fa 53 bd
       0.23478812 0.0272538 0.24919067 -0.051752318
0002c0 bc 42 d9 3e 1a 74 7f 3e 0e 2f 4e 3d bc f1 1d be
       0.42433727 0.24946633 0.050337844 -0.15424246
0002d0 41 8c 05 bf 84 0f db 3d 58 14 0c 3e 70 03 89 3e
       -0.52167135 0.10696319 0.13679636 0.26760435
0002e0 84 1b e2 3d 82 9e cb bd 4d d8 81 3e 33 0a 39 be
       0.110404044 -0.09942342 0.25360337 -0.18070297
0002f0 ef 34 05 bf 1b c9 79 be cb 29 94 3c c1 06 3c 3e
       -0.52033895 -0.24393122 0.018086335 0.18361951
000300 a6 8c 31 bb 9d 30 03 bd e8 ee 25 be 53 94 8e 3e
       -0.002709189 -0.032028783 -0.16204417 0.27847537
000310 d4 68 31 3b 7d 3c 8a bd 2d 00 9e 3c 25 81 c8 bd
       0.002707054 -0.067498185 0.019287193 -0.09790257
000320 04 ce a7 3e da 2f 94 3d 9e f3 9b 3e fe c0 8d 3e
       0.32774365 0.072356895 0.30459303 0.27686304
000330 dd 80 8b 3e 88 b1 a3 bd f4 e1 f7 3c a0 9b f0 3d
       0.27246752 -0.07992846 0.03025911 0.11748433
000340 b9 2b a4 3c 59 82 e5 bd 87 1c 7b 3e 2e 5e 9d bd
       0.02004038 -0.112065025 0.24522601 -0.07683979
000350 94 89 55 bc 52 6b e7 3c ed 5f 5e 3e 62 95 ca b9
       -0.013033289 0.028249417 0.2171628 -0.0003863974
000360 fc a7 70 be 8c 29 67 3d 36 0b 50 be 39 85 85 bc
       -0.23501581 0.056436107 -0.20316777 -0.016298877
000370 74 14 aa 3e 41 ca 93 3e 65 b9 f8 3c 94 6f d2 be
       0.3321873 0.28865245 0.03036184 -0.41100752
000380 9f 36 ca be b9 cb db 3c b7 5d 82 bd db 51 05 be
       -0.39494798 0.026830541 -0.06365531 -0.13019507
000390 e6 e7 33 3e 7b cd 53 3e 24 14 ad bd 75 7d 3a 3e
       0.17568931 0.20683853 -0.08451107 0.1821192
0003a0 1f bd b8 3d b6 f3 aa be 75 b5 da bd dc 45 25 3e
       0.09020447 -0.33389062 -0.106791414 0.1613993
0003b0 0e 5e 37 bc 16 6b 96 3d 5e 47 71 bd 4d cf 2c be
       -0.011191858 0.07344644 -0.05890595 -0.16875954
0003c0 64 54 84 3d a6 c8 07 be 39 25 1f bc 5c dc 6c be
       0.06461409 -0.13260135 -0.009713464 -0.23130935
0003d0 42 da c4 be 17 1e 3a be 49 e2 4b 3c 23 ee ae 3e
       -0.38447767 -0.18175541 0.012444087 0.3416606
0003e0 78 8d b7 be 8f 2d 92 3e 88 e8 a2 be 71 2d c7 bb
       -0.3585012 0.28550383 -0.31818032 -0.006078415
0003f0 b3 49 d3 3d 5f 17 cd 3e f7 a1 c4 be 23 87 16 be
       0.103167914 0.40056893 -0.3840482 -0.14699988

weight f4 [100, 256]
000000 da 4d c1 bc fe 21 f1 3c 5e 2a 85 bd 42 41 a2 3d
       -0.023596693 0.029435154 -0.065022215 0.07922603
000010 6b 57 5a 3e aa 1c 93 bc ae 27 ec 3d 62 93 d8 3d
       0.2132241 -0.017958004 0.11531006 0.10574986
000020 98 5f 9d 3c 20 e5 3b bd b3 d1 11 3e ba 53 a7 3c
       0.019210622 -0.045872808 0.1424015 0.020425666
000030 f4 14 a2 3c 7f c5 98 bc bc 63 96 bc 46 07 dc bd
       0.019785382 -0.018648861 -0.018358104 -0.10743575
000040 60 36 13 3e d5 72 d6 3d 0a 3f 80 bd c9 ad d2 bd
       0.14376211 0.10471121 -0.06262024 -0.10287053
000050 ad f5 d7 3d 6c 82 7f 3c 50 ff b3 3d ae 97 c4 3d
       0.10544906 0.01559506 0.08788931 0.09599243
000060 2f 4d b5 3c 8c 27 16 3d fe 95 b2 ba 37 9d 47 3c
       0.02213153 0.03665881 -0.0013625023 0.012183479
000070 61 9a 93 3d 98 25 ca bc 0f b3 70 bc 93 5a b3 bd
       0.0720718 -0.02467613 -0.014691128 -0.0875751
000080 64 37 04 3e b8 40 1c 3d e1 8c 06 bb 81 dc 3b bd
       0.12911755 0.038147658 -0.0020530748 -0.045864586
000090 e5 52 38 be dd 50 07 bd c2 2d 83 3d 6c fa 3b bd
       -0.18000372 -0.0330361 0.06405212 -0.045893118
0000a0 61 79 83 bd 15 da 9b bb 74 8b 23 bd 4b b1 8f 3d
       -0.064196356 -0.004756222 -0.039927915 0.07016238
0000b0 42 3e 3a 3d 58 29 a9 3c d3 5a 22 3d 1d 47 da 3d
       0.04546953 0.020649597 0.039637398 0.10658095
0000c0 e0 1e 3e be f9 fb f4 3c 3b 32 ac 3c 5c fb c2 3d
       -0.18566465 0.029905306 0.021020046 0.09520599
0000d0 c8 60 c0 bd f8 e5 2d 3e 1b 6e a7 bc 07 74 0e be
       -0.093934596 0.16982257 -0.020438245 -0.13911448
0000e0 b9 de da 3c be ad 81 3c 92 f0 c0 bd bd 9f a8 3c
       0.02671753 0.015829917 -0.09420885 0.020583982
0000f0 6b ac e5 bd 9f bc 28 3b 6c 8c 19 bd 53 be a5 bc
       -0.11214527 0.0025747193 -0.037487432 -0.020232355
000100 f2 5d 92 bd 41 db 4d 3d 75 a4 64 bd d4 7d 9b bb
       -0.07146825 0.050257925 -0.0558209 -0.0047452245
000110 3e a2 1f 3e e4 bc 32 3d 12 51 47 bd 5d ff 83 bd
       0.15589234 0.04363717 -0.0486613 -0.06445191
000120 13 76 ee 3b 3c 7c a2 3d 37 e5 1d 3d 16 44 b6 bd
       0.007277259 0.07933852 0.038548674 -0.08899705
000130 b1 cc 3d bd 1a cb b2 bd 2c f4 1c bd 7c 26 08 3a
       -0.046337787 -0.08730145 -0.038318798 0.0005193723
000140 47 2a 8a 3d 19 fa ab 3d d4 e8 04 be 72 83 8b 3b
       0.06746345 0.08397312 -0.12979442 0.004257613
000150 b1 a1 24 bd 38 5e 3f 3e 7b 16 30 3d ca ed 35 3c
       -0.040193263 0.18688285 0.04299019 0.011104057
000160 06 e1 ae bd bf 7e 65 3d 67 64 3e 3d b6 67 df bc
       -0.085390136 0.056029078 0.04648247 -0.027271133
000170 f0 f7 0c 3d c3 ed 26 bc 41 5c ec 3c 0d 81 c7 3a
       0.03441614 -0.010188523 0.028852584 0.0015220955
000180 4f 30 ef bb d0 72 d2 bd 60 3c 4c 3d a3 d9 14 bd
       -0.00729946 -0.10275805 0.049862266 -0.036340367
000190 ec 78 32 3e 05 bf 3e bb 8f 22 bc 3d 50 e8 c0 bd
       0.1742894 -0.0029105556 0.09186279 -0.0941931
0001a0 bd 69 8a bb 96 32 4c 3d 61 a6 6a 3d f5 f7 05 be
       -0.0042240308 0.04985293 0.057287578 -0.1308287
0001b0 b2 7f eb bd 6e 49 bf 3d a8 9c 93 bc 39 8b e1 3d
       -0.11498965 0.093401775 -0.018019035 0.11012883
0001c0 81 26 24 bc 66 03 35 3d 16 68 f1 bc 93 26 14 be
       -0.010018946 0.044192694 -0.029468577 -0.1446784
0001d0 ea 15 9f 3c 00 ac 82 3d c5 0e f3 bc 57 50 71 bd
       0.01941963 0.06380463 -0.029670129 -0.05891451
0001e0 18 6c eb bb bc 81 c0 3d 49 01 32 be 86 de 27 3d
       -0.0071845166 0.09399745 -0.17383303 0.0409837
0001f0 84 bf 05 3d 03 57 0b be 75 55 31 3a ec 28 8b bd
       0.032653347 -0.13607411 0.0006764748 -0.067949146
000200 e6 34 81 bd 13 2c af 3c ae d6 b1 3d cd 8d 87 3d
       -0.06308918 0.02138332 0.08683525 0.06618843
000210 5f 18 ad 3d dd 55 3d 3e d6 74 3e 3b 22 f6 d6 3d
       0.08451914 0.18489785 0.002906134 0.10496165
000220 83 e1 ab 3d 2e c2 b1 3c dd 3f a2 bc 25 35 b0 bd
       0.08392622 0.021699037 -0.019805843 -0.086038865
000230 cb b0 1e 3e 54 33 00 3e 94 2d 06 3e 9a 35 6f 3c
       0.15497129 0.1251958 0.13103324 0.014600182
000240 41 be 90 bd 83 e3 6e bd 72 24 04 3d 98 b2 f0 3d
       -0.07067538 -0.05832244 0.03226132 0.11752814
000250 94 26 c0 3c 6d 04 3f 3e 68 a5 b5 bd de 01 69 3d
       0.023455895 0.18654032 -0.08869439 0.056886546
000260 28 46 81 3d fd ee 44 3c 10 3f 0e 3e f5 d9 3e bd
       0.06312209 0.01201987 0.13891244 -0.04659458
000270 c3 93 ca bc 70 db 46 be ea a6 8d bc bd a6 aa 3d
       -0.024728661 -0.19419646 -0.017291505 0.08332584
000280 0b b6 72 bd 71 a7 e0 3c 0d 95 82 bd d8 b8 1c 3e
       -0.05925564 0.027423592 -0.063760854 0.15304887
000290 ee 30 be bc 89 48 c9 3c 95 53 ed 3c 03 48 3d bc
       -0.02321669 0.02457072 0.02897052 -0.011552813
0002a0 bd de ce 3c 34 15 af bd 01 69 4e 3d 33 2c f7 bd
       0.025252694 -0.08548966 0.05039311 -0.12068977
0002b0 4c d9 80 3c c1 11 b0 3d e4 1d 41 bd ef 4c 79 bd
       0.015728615 0.08597136 -0.047147647 -0.060864385
0002c0 f2 38 cd 3c aa 43 03 3d 21 18 ce bd d3 9d 2a ba
       0.025051568 0.03204695 -0.10063196 -0.0006508503
0002d0 c3 0c d5 3d 4d d3 6f 3c bf c7 89 bd 04 db 86 bd
       0.10402825 0.01463778 -0.06727552 -0.06584743
0002e0 a5 b1 8c bd 92 2e 8c 3d 8d 45 4f bc 69 fc 82 bc
       -0.068698205 0.0684482 -0.01265086 -0.0159895
0002f0 3b 73 9d 3d c5 98 41 3e 64 91 10 bd 01 1a b6 bc
       0.07687994 0.18905933 -0.035294905 -0.022229197
000300 10 2a 83 bc 5c a7 2f be cb b6 13 3e c4 77 2d 3d
       -0.016011268 -0.17153686 0.14425199 0.042350546
000310 2d 62 d4 3d e4 b6 b3 3d f3 20 3e bd 62 e4 8c bc
       0.10370288 0.08775118 -0.04641814 -0.017198745
000320 b0 b4 f1 39 a6 c2 c4 bd 25 9e 67 bd 37 3d a2 3d
       0.00046101725 -0.09607439 -0.056547303 0.07921832
000330 50 85 af bd f0 36 61 3e e4 da 80 3c 9c 60 99 bd
       -0.08570349 0.21993613 0.015729375 -0.0748913
000340 66 a4 0e 3e 4c d8 04 3e 82 f9 2d bd 81 b0 be 3d
       0.139299 0.12973136 -0.042474277 0.09311009
000350 43 a4 9c 3d 21 79 8c bc 2a 6c 10 bd 9e dc 7a 3d
       0.07648518 -0.017147603 -0.035259403 0.061245553
000360 15 58 2c bd 86 f0 25 3c 7d 4c 1f 3e 4f 04 71 3d
       -0.04207619 0.010128146 0.15556522 0.058842
000370 7f 4e 39 bd b8 c3 f7 3d b8 96 dc bb b4 56 9a 3b
       -0.045240875 0.12097877 -0.0067318343 0.004710043
000380 bb 57 b1 3c 2f 84 8e bd bf ce bd 3d 25 28 50 bc
       0.021648278 -0.06958806 0.09267949 -0.012704884
000390 c0 d7 b4 bb 62 18 80 3d c4 16 55 3a 70 68 0a be
       -0.0055188835 0.06254651 0.00081286975 -0.13516402
0003a0 92 c8 39 be 4e 35 09 bd 6e a2 f1 3c f6 dd 9f bd
       -0.18142918 -0.0334981 0.029496398 -0.078060076
0003b0 49 35 a2 bc 20 30 e6 bd 59 67 27 3d 3e a7 c3 bb
       -0.019800799 -0.11239648 0.040870044 -0.0059708646
0003c0 ad 83 2b 3d b2 12 d9 bd 28 72 2f 3d 18 c9 58 3c
       0.041873623 -0.10599269 0.042833477 0.013231538
0003d0 35 d5 96 3c 78 f6 36 3e ac 8c 59 3c 78 eb 60 3e
       0.018412212 0.17867458 0.013278168 0.21964824
0003e0 ed 06 bc bd e0 f5 04 3e 9a 52 8a 3d f1 43 8a 3d
       -0.091810085 0.12984419 0.06754036 0.0675124
0003f0 9b 49 02 be 49 09 64 bd 9f 67 99 3c 98 46 90 3e
       -0.12723391 -0.055672918 0.018726168 0.2817886

bias f4 [100]
000000 6e 93 48 be 1b 7a 88 be ea 72 b3 be ab 00 83 be
       -0.1958749 -0.2665566 -0.3504861 -0.25586447
000010 1f d9 83 be 87 bd 9f be 53 c0 39 be b1 47 31 3e
       -0.25751588 -0.31199285 -0.18139772 0.17312504
000020 2c 89 f3 bd da eb ba be 47 eb 94 bd 7c 9f 1d 3d
       -0.11891398 -0.36508065 -0.07271438 0.038482174
000030 8c 65 3f be 27 88 e6 bd 81 c1 e2 bd 21 67 e2 bd
       -0.18691081 -0.11256438 -0.11072064 -0.110548265
000040 e3 90 10 bf 65 33 b5 be dd 6e af be df 45 e8 bd
       -0.5647108 -0.35390773 -0.3426427 -0.11341452
000050 21 05 b2 bc 71 bc 8c be 8e ca 02 3d 4b 94 7b 3e
       -0.021730961 -0.2748752 0.031931452 0.24568288
000060 36 7c 67 be a7 93 03 3e fb 20 73 3e ae c6 4d be
       -0.22605976 0.12849294 0.2374305 -0.20095322
000070 c8 82 09 bf 3e e5 1c 3e fa aa 59 3d 4c f5 72 be
       -0.5371518 0.15321824 0.05314157 -0.23726386
000080 75 5c 4f be a1 7d 94 be 91 e4 36 be bd 75 a5 be
       -0.20250113 -0.29002097 -0.17860629 -0.3231639
000090 bc 13 49 3d f0 1b e7 3e 1b d1 7e 3e 13 e9 29 be
       0.049091086 0.45138502 0.24884455 -0.16592817
0000a0 3c e8 6b bd d6 2b 08 be a0 79 b2 bd 7d 4e e2 be
       -0.057594523 -0.13297972 -0.087146044 -0.44200507
0000b0 24 77 4a be e3 e7 77 3e b5 66 b0 be 2a 06 1f be
       -0.19772011 0.24209552 -0.3445336 -0.15529695
0000c0 8d 6d 4b 3e 42 e6 30 be 46 0e 7a 3d 63 27 da bc
       0.19866009 -0.17275336 0.06104877 -0.02663011
0000d0 94 5e 08 be e2 7d f0 bd 96 7d 6d bd 08 e0 b5 be
       -0.13317329 -0.1174276 -0.057981096 -0.35522485
0000e0 ad 2d 9f 3e 1d 3e c4 3e a3 44 ce be d4 90 ee bd
       0.31089535 0.3832864 -0.4028674 -0.116487175
0000f0 bd ca 87 3e 19 cd ad be 56 44 64 be f6 1d b6 bd
       0.26521865 -0.3394554 -0.22291693 -0.08892433
000100 a3 eb b3 3e 8c 47 f4 bc 3d f9 42 be 21 ec c4 bd
       0.35140714 -0.029819272 -0.1904039 -0.096153505
000110 1f 76 96 be 78 74 15 3d af c8 e7 be 48 ae 2b be
       -0.29386994 0.036488026 -0.45270297 -0.16765702
000120 97 ce 4b 3e e2 1e 84 bd 91 b1 8b 3e df 5f 08 be
       0.19903027 -0.06451203 0.2728391 -0.13317822
000130 b0 de 8b be 5d e4 ad bd 07 80 b5 be 5f fb 08 be
       -0.27318335 -0.084908225 -0.3544924 -0.1337714
000140 37 ba f5 be 18 d6 da bb 7e af 49 be 8a 33 2b 3e
       -0.47993633 -0.006678354 -0.19695851 0.1671888
000150 3d 86 65 bc da c6 11 be 5e ae 97 be d9 2c fe 3d
       -0.014009056 -0.14236012 -0.2962522 0.12410898
000160 ea eb 4b be 58 21 50 be c2 03 b5 be 8a f1 ba be
       -0.19914213 -0.2032522 -0.3535443 -0.36512405
000170 44 20 8a 3d f9 0f c0 3d f7 e9 0a 3f 33 54 7e bc
       0.067444354 0.093780465 0.5426325 -0.015523004
000180 55 90 79 be e6 ba 87 be 18 a0 9c be 6b 2d 0f bf
       -0.24371465 -0.2650978 -0.30590892 -0.5592868

weight f4 [10, 100]
000000 55 47 e2 3e 7e a4 6a 3e 6b 28 de 3c f4 dc af be
       0.44195047 0.22914311 0.027118882 -0.3434826
000010 83 b0 b4 be 39 82 03 be 67 27 96 3d 82 a1 01 bf
       -0.35290918 -0.12842645 0.07331734 -0.50637066
000020 9e da b5 be f9 84 21 3f 7f 78 75 be b8 88 d7 be
       -0.35518354 0.63093525 -0.23971747 -0.42096496
000030 c5 50 79 be 4f 81 5e be 62 05 3c bf 88 50 a9 3e
       -0.24347217 -0.21729015 -0.73445714 0.33069253
000040 90 02 9b be 58 9c 40 3e 74 d6 69 bd f9 d5 82 3e
       -0.30275393 0.1880964 -0.057089284 0.25553873
000050 cf dd 5f 3e 74 ac 98 be 04 73 89 be 23 8d dd 3e
       0.21861957 -0.2981907 -0.26845562 0.4327174
000060 cb 54 86 3d 50 d4 e7 3e 97 06 79 be f7 18 bf 3d
       0.06559142 0.4527917 -0.2431892 0.093309335
000070 51 a9 30 be af 02 e8 be 6b 28 0d 3f 0f 3b cd be
       -0.17252089 -0.45314547 0.551398 -0.4008412
000080 c9 af a5 be ea e1 04 3e c2 36 03 bb da d3 5b bd
       -0.32360676 0.12976804 -0.0020021652 -0.053668834
000090 42 2b 0d 3e ad c0 c2 3e f3 ad 0c bf 9e a7 26 3e
       0.13786033 0.38037625 -0.54952925 0.16274878
0000a0 e3 92 03 bf cc 3f ad 3e a2 5a 5e bc cc 6e ab 3d
       -0.51396006 0.33837736 -0.013571413 0.08370742
0000b0 b2 e8 c1 be 8f 63 d5 3e 70 53 9d 3e 0f 54 9d 3e
       -0.37872845 0.4167752 0.3072772 0.30728194
0000c0 c7 34 a4 be ad 70 7b be a0 22 3b 3e 6c 52 f1 3d
       -0.32071516 -0.24554701 0.18274927 0.11783299
0000d0 e3 21 82 be 30 b1 e1 be a7 81 3e be fe 06 b7 bc
       -0.2541648 -0.44080496 -0.18604146 -0.022342201
0000e0 1c c4 86 3e 90 e4 11 3f 82 2c a6 3d 10 bc a3 3e
       0.26321495 0.56989384 0.08113958 0.31979418
0000f0 0c 6f c8 3e 78 54 57 3d 76 be b9 3c 0d 70 3d be
       0.39147222 0.05257079 0.022673827 -0.18499775
000100 d2 70 2f bd 6c 24 a0 be 95 7b 40 bf be 4c c0 be
       -0.042832203 -0.31277788 -0.7518857 -0.3755855
000110 7f b8 8c 3c 14 f7 6b be 17 36 df 3e b2 3a 6e be
       0.017177818 -0.23043472 0.43595955 -0.23264578
000120 0c 06 35 3d d6 4e 6b 3e eb 52 41 be 71 3d 80 3d
       0.04419522 0.22979292 -0.18879287 0.06261719
000130 4b c1 7d be 9f 89 ac bb 72 d9 a7 3e 4c 84 7e 3e
       -0.24780767 -0.005265429 0.32783085 0.24855155
000140 d2 1f 39 be 99 a8 5a bd 21 31 7b be 22 ac 69 3d
       -0.18078545 -0.053383444 -0.2453046 0.057048924
000150 58 64 86 be 63 4b 14 bf 64 e7 16 3c 15 5f 1d 3e
       -0.2624843 -0.5792753 0.009210441 0.15368302
000160 e7 46 78 bb 44 c4 5e bd 82 6e f7 be 4b 15 37 3d
       -0.0037884058 -0.054386392 -0.48326498 0.04469804
000170 ff 2e 96 3e 03 b0 9c 3e e4 bf 9c 3e ac fa 43 be
       0.2933273 0.30603036 0.3061515 -0.19138592
000180 ac b5 92 3d 2b 67 ff be 28 c8 8c be 83 73 ff 3c
       0.071635574 -0.49883398 -0.27496457 0.03118301
000190 d8 07 41 be ec 6d d4 3d 7e 27 02 be eb 35 03 3e
       -0.18850648 0.103725284 -0.12710378 0.12813537
0001a0 56 70 c3 3c 19 62 97 be 6c 43 e1 be b3 fe 8e 3e
       0.023857277 -0.2956703 -0.4399675 0.27928695
0001b0 35 3d 95 3e 2d ea 8c 3e d2 8b 57 bf ef b3 c5 3e
       0.2914826 0.27522412 -0.84197724 0.3861384
0001c0 b3 f1 d5 bd 8b 07 b3 3e 7c e5 cb 3d 14 12 5d 3e
       -0.10446491 0.34966692 0.0995588 0.21588928
0001d0 2a cf 6f 3e a0 53 9b 3d 5b 71 60 3e f9 0d 62 3e
       0.2341887 0.075843096 0.21918242 0.22075643
0001e0 48 6c 21 bf c3 a1 f9 bd 57 6d 9d 3e 04 76 21 3e
       -0.6305585 -0.12189057 0.30747482 0.15767676
0001f0 bb 0f 0f 3d 2a 66 5c bd 13 36 e5 3e f0 19 db bd
       0.03492711 -0.05380837 0.44767818 -0.106983066
000200 88 b3 33 3f e2 bb 25 3c e8 66 e0 bd ff d7 28 3e
       0.7019582 0.010115596 -0.10957128 0.16488646
000210 85 02 1f 3e cb 77 91 3e c7 e0 0f bc a3 22 cc 3e
       0.15528305 0.28411707 -0.008781618 0.39870176
000220 74 14 4d bf 8b 78 23 bf 37 9c 35 3f d7 f0 f6 be
       -0.80109334 -0.6385581 0.7094149 -0.4823062
000230 9f db b2 be 42 91 3c bc 8b 19 8b be 74 c7 db be
       -0.34933183 -0.011509242 -0.27167925 -0.42925608
000240 ad cf db be fd 7e 9b 3d 4f 0b a4 3c f1 b0 46 3e
       -0.42931882 0.075925805 0.020024924 0.19403435
000250 35 df 48 3e da a9 79 be e9 4a 0f bf 20 fb d6 bd
       0.19616397 -0.243812 -0.5597368 -0.10497117
000260 84 1c 07 be 9d 42 57 3e e7 22 b1 3b dc 56 b0 3d
       -0.13194472 0.21021505 0.005405772 0.08610317
000270 91 51 6c bf 2f 8e a8 3e 74 77 2c 3e 6b ae 81 be
       -0.9231196 0.32920977 0.16842443 -0.25328383
000280 e3 0a 57 3e 78 0d e1 be be 02 dd 3d 1d 62 88 bd
       0.21000247 -0.43955588 0.10791539 -0.066593386
000290 7a 1b cd 3e f3 d8 8f 3e 84 b3 e8 bd d5 f8 fc bd
       0.40060025 0.28095207 -0.11362365 -0.123521484
0002a0 55 04 80 3e 51 82 71 bb 61 68 a0 3d c6 3c 1f 3f
       0.25003305 -0.0036851356 0.07832409 0.6220211
0002b0 84 bf 21 bd d6 c8 6f 3e 9e 11 83 be a1 07 58 bf
       -0.039489284 0.23416457 -0.25599378 -0.8438664
0002c0 e1 d6 80 be 6d f6 e1 be 4b aa 64 3e b7 98 9d bd
       -0.2516394 -0.4413332 0.22330587 -0.07695144
0002d0 5a 97 2d bf 74 37 43 bb 0e 42 40 3f cb 50 d6 3d
       -0.6780907 -0.0029787691 0.7510079 0.10464629
0002e0 1b 91 b1 bb 4c 06 9b 3e 94 b6 1a 3f 36 cc 00 3d
       -0.0054189092 0.30278242 0.6043484 0.03144475
0002f0 51 55 14 bf 03 a1 0e 3f 31 dd 99 bd 89 3b 3d 3d
       -0.5794268 0.55714434 -0.07512892 0.046199355
000300 22 76 21 bf 01 3d e1 bd 85 cf 10 bc fe 09 cb 3e
       -0.6307088 -0.10997964 -0.008838539 0.3965606
000310 4a f5 ba 3d 4f 51 7e be 74 ba c7 be de 0f e3 be
       0.091288164 -0.24835704 -0.3900944 -0.44348043
000320 dc c5 0c 3e d5 36 89 3e cd de 16 be 30 60 24 bf
       0.13747352 0.26799646 -0.14733429 -0.6420927
000330 0d 17 91 3e 0e 27 8c 3e e7 a6 8d bd 3f bd 71 be
       0.283379 0.27373546 -0.069166 -0.23607348
000340 ea a8 8e be d2 30 53 bb ed 0c e2 b9 79 d5 37 3f
       -0.27863246 -0.0032225144 -0.0004311571 0.7181011
000350 1f 9f 38 3f 96 cd d5 3e 50 b5 74 3c 85 53 0e be
       0.721178 0.41758412 0.014935806 -0.13899048
000360 2c a0 05 3f f3 83 ab be d4 fa 41 be 1d bf 23 bd
       0.5219753 -0.33499107 -0.1894334 -0.03997718
000370 c4 f0 3d 3e 2b 16 7c be b5 42 02 3f f3 d6 0e 3d
       0.18548876 -0.24617831 0.50883037 0.03487296
000380 9a ab 2e be 1e d0 f5 be d8 f8 ba be 2e 91 8b 3e
       -0.17057648 -0.48010343 -0.36517978 0.272592
000390 ec ac 14 3e 48 68 82 bc d0 2e f6 bd 80 0f 8c bd
       0.1451909 -0.015918866 -0.120206475 -0.06838894
0003a0 74 1b b2 be 6c d4 0b 3e 02 3c d6 3e cd 28 f0 be
       -0.3478657 0.13655251 0.41842657 -0.4690613
0003b0 4e c7 38 3d a9 34 b1 3d a9 9c 08 be ff 52 8c bd
       0.045111947 0.08652622 -0.13341011 -0.06851768
0003c0 1f ab d2 be 96 ac 9e 3e af 4c 99 3e 2e f8 64 be
       -0.4114618 0.30991048 0.29941317 -0.22360298
0003d0 05 5e 49 be ed 40 29 be 94 5b 06 bd dd c4 5f be
       -0.19664772 -0.16528673 -0.03280218 -0.21852441
0003e0 b7 04 37 3e f1 00 5a 3e ca 54 93 3e 3f 83 ba 3e
       0.17872892 0.21289422 0.28775626 0.36428258
0003f0 56 24 9f be e9 c6 be be 57 07 94 3e dc 81 a8 bd
       -0.3108241 -0.3726113 0.2891185 -0.08227894

bias f4 [10]
000000 4d 34 a5 3d c1 49 b2 be cd 6a 16 3f 42 75 c1 3d
       0.08066616 -0.34821895 0.58756715 0.09446193
000010 63 32 21 3f 64 31 11 bf b0 8d f6 be 47 04 94 bf
       0.6296751 -0.5671599 -0.48154974 -1.1563805
000020 41 38 0e 3e 0b cf 8e 3f
       0.13888647 1.1156934
